my_testing_model.pth (torch, 4962 bytes, 5 tensors)

weight f4 [7, 10]
1.1782777 -1.2425077 -1.4553537 -1.2842985 -1.4784013 1.1446115 -1.3469632 1.1683717
1.1935846 1.171342 -2.5991926 2.6664925 2.5787132 2.5677927 2.5329728 -2.6106288
2.431821 -2.621324 -2.5387366 -2.5518072 -2.121742 2.024261 2.026611 2.0166824
2.0161538 -2.1162953 1.8444196 -2.1170318 -2.0683436 -2.0658414 -0.39910585 0.3967246
0.3853785 0.38461548 0.3954391 -0.40314904 1.1945959 -0.40011197 -0.37374133 -0.3734436
0.47213355 -0.49687076 -0.7673769 -0.50629234 -0.74688494 0.40724745 -0.48522893 0.44908687
0.5112793 0.46718454 0.50789243 -0.5110664 -0.4948928 -0.49846083 -0.4846011 0.50206083
-1.4635545 0.50992244 0.50029564 0.49909577 0.77582204 -0.7891138 -0.77894753 -0.76585716
-0.78388953 0.7779533 2.7097404 0.78319496 0.75461996 0.79408604
00000000: ced1 963f 7e0a 9fbf 0849 babf e563 a4bf
00000010: 413c bdbf a182 923f 4a69 acbf 348d 953f
00000020: 61c7 983f 89ee 953f 2c59 26c0 d0a7 2a40
00000030: a309 2540 b756 2440 3a1c 2240 8b14 27c0
00000040: f5a2 1b40 c6c3 27c0 a97a 22c0 cf50 23c0
00000050: 9fca 07c0 7e8d 0140 ffb3 0140 5311 0140
00000060: aa08 0140 6271 07c0 f115 ec3f 737d 07c0
00000070: be5f 04c0 bf36 04c0 9a57 ccbe 7d1f cb3e
00000080: 5550 c53e 52ec c43e fe76 ca3e 8d69 cebe
00000090: 85e8 983f 7adb ccbe 065b bfbe 0034 bfbe
000000a0: 7dbb f13e d865 febe d072 44bf 609c 01bf
000000b0: da33 3fbf bd82 d03e ed6f f8be b7ee e53e
000000c0: 33e3 023f d032 ef3e 3d05 023f 3fd5 02bf
000000d0: 9762 fdbe 4236 ffbe a31d f8be 0f87 003f
000000e0: c155 bbbf 478a 023f 6013 003f 7b89 ff3e
000000f0: 469c 463f 5d03 4abf 1b69 47bf 370f 44bf
00000100: fcac 48bf f327 473f 636c 2d40 777f 483f
00000110: c62e 413f 3949 4b3f

bias f4 [7]
-2.7625537 1.2033811 -2.7439501 -1.3611636 -1.6292849 0.2943851 -1.0308884
00000000: aecd 30c0 6408 9a3f e19c 2fc0 9c3a aebf
00000010: 688c d0bf a5b9 963e 27f4 83bf

weight f4 [6, 7]
0.5575303 -2.0758696 -0.08606572 0.047176693 0.3197278 -0.5189995 -0.37331498 -0.748109
-2.376464 -2.6176229 3.5623496 -0.5811368 -3.0932667 -2.691128 0.33227816 -2.7551897
-1.6812303 -3.067278 0.39375952 3.2012691 2.5368001 -0.79384524 0.67035896 -1.1219975
-2.7391202 -1.1677945 -0.30059624 2.9238935 -2.5104442 1.4032007 1.7573582 -2.2822492
3.0683417 1.990303 1.800102 2.3932393 0.40872025 -0.6840635 0.56465656 -2.8101661
-0.38951865 0.99240917
00000000: 4eba 0e3f 0cdb 04c0 3943 b0bd 593c 413d
00000010: 5db3 a33e 27dd 04bf 2423 bfbe 1284 3fbf
00000020: fc17 18c0 2287 27c0 89fd 6340 62c5 14bf
00000030: 15f8 45c0 713b 2cc0 5d20 aa3e 0755 30c0
00000040: 8e32 d7bf 484e 44c0 d99a c93e 98e1 4c40
00000050: ef5a 2240 7139 4bbf a59c 2b3f 9d9d 8fbf
00000060: bf4d 2fc0 4a7a 95bf c0e7 99be 1221 3b40
00000070: 1eab 20c0 159c b33f 1df1 e03f 5f10 12c0
00000080: b65f 4440 40c2 fe3f be69 e63f d52a 1940
00000090: c843 d13e c91e 2fbf 558d 103f c3d9 33c0
000000a0: fd6e c7be 870e 7e3f

bias f4 [6]
-0.20458436 0.25876662 0.42593944 1.0870752 -0.44305545 -2.4674604
00000000: 907e 51be 0f7d 843e bc14 da3e 4825 8b3f
00000010: 2ad8 e2be dfea 1dc0

weight f4 [1, 6]
4.1734505 5.453426 -2.629553 5.1744995 -5.1889963 3.7861607
00000000: e88c 8540 7782 ae40 994a 28c0 8095 a540
00000010: 420c a6c0 7550 7240
