temp/testing_model_0.pth (torch, 4952 bytes, 5 tensors)

weight f4 [7, 10]
000000 12 54 c3 3e 70 bc cb be be 43 0d bf 72 42 17 bf
       0.38150078 -0.39792204 -0.5518149 -0.5908576
000010 a3 c1 17 bf 6b 1a 67 3e 9d a7 c8 3e 99 19 18 3f
       -0.5927984 0.22568671 0.3919038 0.5941406
000020 86 22 cc be d9 9c ca be 34 63 c9 be 03 3a b5 be
       -0.3987009 -0.3957279 -0.39333498 -0.35395822
000030 f6 b8 d8 be 61 e8 b2 be b0 ab dc be ba 21 9f 3e
       -0.42328614 -0.34942916 -0.43099737 0.3108042
000040 b2 b5 9f be 8c 9f b4 3e b6 c1 93 3e c1 4b 9d 3e
       -0.3119331 0.35277975 0.28858727 0.30721858
000050 ba d9 16 3f 76 f0 28 3f 8c 60 19 3f 3e 75 08 3f
       0.58925974 0.65991914 0.59912944 0.533039
000060 16 d0 0e 3f aa 72 1e bf 8f 38 18 3f 5a f6 12 bf
       0.55786264 -0.61893713 0.594613 -0.5740715
000070 9f 83 12 bf d8 6f 15 bf 2c 41 06 bf ae e2 02 3f
       -0.5723209 -0.58373785 -0.52443194 0.51127136
000080 12 c7 04 bf 1b 75 0c bf 0d 7d 0f bf f8 96 f8 be
       -0.5186626 -0.5486619 -0.5605019 -0.4855268
000090 75 37 05 bf 69 63 0c 3f 9a 88 05 3f 4c d3 06 3f
       -0.52037746 0.5483919 0.5216156 0.52666163
0000a0 8c 0d 47 3f 26 4a 46 bf 6b fb 31 3f 8a 21 34 bf
       0.77755046 -0.7745689 0.6952426 -0.70363677
0000b0 a3 78 33 bf 64 e4 4d bf 81 e5 46 3f 61 ee 32 3f
       -0.7010595 -0.8042662 0.77693945 0.6989499
0000c0 5e 05 49 bf 2f fd 47 bf 76 44 b7 3e 81 c4 bf 3e
       -0.78523815 -0.781207 0.3579442 0.37454608
0000d0 8c f7 b5 3e 2f 54 bb 3e 5e 51 c0 3e 40 aa b4 be
       0.35540426 0.36587664 0.37562078 -0.3528614
0000e0 e9 9f b9 3e 89 48 c0 be cc 49 ba be f4 9d b8 be
       0.36254814 -0.3755534 -0.36384428 -0.3605801
0000f0 96 78 19 3f b6 3c 0c bf a6 6e 17 3f 4b 1f 17 3f
       0.59949625 -0.5478014 0.5915321 0.59032124
000100 ed 49 17 3f 1c b4 9f bf 2e 04 19 3f b9 1e 17 bf
       0.59097177 -1.247684 0.59772 -0.59031254
000110 52 43 18 bf 0f 1a 19 bf
       -0.5947772 -0.5980539

bias f4 [7]
000000 50 7c ed be 81 b2 52 bf b6 ec 75 be c5 e6 84 3f
       -0.46383905 -0.82303625 -0.2401608 1.0382925
000010 de f1 20 bf 32 d6 9f 3e e8 27 30 3c
       -0.6286906 0.31218106 0.010751702

weight f4 [6, 7]
000000 9b b5 28 bf d6 41 b2 bd 02 c8 b2 3e c8 7a 59 bf
       -0.6590211 -0.087039635 0.3491822 -0.84952974
000010 9c fd 65 3f a4 db d1 3f 50 87 b4 bf 03 36 c9 bc
       0.898401 1.6395154 -1.4103794 -0.024561888
000020 83 cc 90 3e 70 e1 ac 3e ac 0a 73 be 82 bf 25 be
       0.2828103 0.33765745 -0.2373454 -0.16186336
000030 d9 f6 a8 bf ab f2 9f 3d 9c c3 78 be db 8c 25 3d
       -1.3200332 0.07809957 -0.24293369 0.040417533
000040 0b 6f 45 bf ce 17 9f bf 2c 5c 06 3f 01 9e 98 3f
       -0.77122563 -1.242914 0.52484393 1.1923219
000050 b2 44 64 be 6d a5 c6 3d 51 82 03 bf dd 2d cd 3f
       -0.2229183 0.09699521 -0.5137072 1.6029621
000060 c4 83 b0 3f fa b6 26 be f0 e3 37 bf 40 97 92 bc
       1.3790212 -0.16280738 -0.7183218 -0.017894387
000070 61 bb e7 3e cb 08 9b be ba 80 2b bf b1 c2 a5 3e
       0.45260146 -0.30280146 -0.66993296 0.323751
000080 c1 c3 0b bf 68 bf 47 be e4 cd d8 3e f9 e2 38 bf
       -0.5459557 -0.1950661 0.42344582 -0.7222133
000090 e5 b1 34 3e 12 65 47 bf e5 51 ca bf f7 92 3f 3f
       0.17645986 -0.77888596 -1.5806242 0.74833626
0000a0 91 87 cb 3f 1e ce 86 be
       1.5900747 -0.2632913

bias f4 [6]
000000 79 75 f7 3c 9b 41 cb bd 63 66 9e 3e 55 e4 33 bf
       0.030207383 -0.099246226 0.3093749 -0.7027028
000010 46 e0 7c 3e 94 83 38 be
       0.24694929 -0.18018943

weight f4 [1, 6]
000000 cb dc aa c0 1c a6 a3 c0 dc 5d 76 c0 75 c5 93 c0
       -5.3394523 -5.114027 -3.8494787 -4.6178536
000010 6f 2f c6 c0 56 16 42 c0
       -6.19329 -3.0326133
